forecasting/model/model.pt (torch, 821490 bytes, 11 tensors)

hidden_cell f4 [2, 1, 128]
00000000: 6587 f1b6 844b ac3d f09d afb9 7219 4fbe
00000010: a0d9 a43c 04ff f53b 4188 ae3b 5b84 6635
00000020: 2a4e 3f3a 4ede 7fbf fadc 4535 35e6 f5b6
00000030: 8489 36bf 6e81 3938 47da 8fb9 12f2 bb3c
00000040: 0d26 293d 86b7 3c39 7eae 67b7 3bca b4bc
00000050: 6e2f e33c c303 9737 1730 d33a 6584 6ab9
00000060: df7f 1636 dab3 fe3d ab4c 64bc a7c0 85b5
00000070: da33 323d 800e adbc f466 c239 336f 94b8
00000080: 1cd6 0639 4426 c6bb 6650 c93c 510a 7937
00000090: 1779 1f38 4d3c f937 a4cb c9b8 0e84 073e
000000a0: e812 24ba 842e 1db8 fd3c 0b3a 7d20 99bb
000000b0: 01bd cf37 52c0 d5bb 573b 553f 7192 f3b7
000000c0: 7aee 56ba 87ad aebb 4031 7fbf ec86 a93a
000000d0: 29f5 8639 5643 5b3d 4f4e b9b8 4c9f 45bd
000000e0: 4698 3cb9 9304 bf3b f065 8938 c266 9535
000000f0: 96fb b33a f281 87b7 2418 203d a504 e5bb
00000100: 52ed 933d f1db d6b6 17cd 6d3c a66f e138
00000110: 1410 a0b6 8f77 00b7 46b6 fc39 9bd0 7f3f
00000120: 9a0b 0d39 96d8 90bd f4c3 7fbf 9062 fcbb
00000130: c6fc 4cbe 6039 f33e 5d34 0cb7 851e 06ba
00000140: b8f8 c9b8 0a9b d3bb d456 acba 96e7 f138
00000150: 0686 153a ba33 30b6 53fa f7b9 3618 533d
00000160: 43c4 0e36 1f47 303b 10ae 35b9 5faa eb3a
00000170: 568a 35b9 69f0 c03e e7e4 c837 3f29 f137
00000180: eb56 403e c0cc 8b3a a7f8 2cbc 472f 36bb
00000190: 2469 70bd c7cd 5c36 2c0c 8036 8467 26b7
000001a0: 1dd3 80bd 3b25 adb9 03d9 91bd 1958 bc36
000001b0: 20fd bc3e 3dfd 77bd 1ba2 73bb bc1c 2bba
000001c0: 78fe 3e3c 17db a2bd 0024 06bc 3fa9 c3b8
000001d0: 4808 2bbe 3657 4535 f7b1 a637 ed59 d93d
000001e0: 259c 313d d87b 0a3e a13f e438 22d8 b438
000001f0: 18c7 0537 4765 073c b05b 843d 4aed 44b7
00000200: db8e c83a aa02 a738 7b99 653c 7468 53bd
00000210: 4407 aaba 11c3 d7ba 3bbf c73d eade 2abb
00000220: a9f5 2d3b 9c83 033b f751 56be 0bdb 643a
00000230: 60ac 5037 0a01 7bb7 d030 8e37 8265 03bd
00000240: 9278 95b7 cb85 83ba 5dd6 1239 6d8f 653b
00000250: 5253 4f3a 80dc 073e 401c 123a 9cbe 98bb
00000260: b6cb 2637 a73b a139 6897 ccb8 f50f 143a
00000270: 6042 8cb8 9661 ed3c f48d 6139 0114 b3bc
00000280: fc5a b83b e266 c8ba a29d b437 53be 98ba
00000290: 7163 b637 b50c 8b37 a95a 203c 646e 83bb
000002a0: 3388 9e39 ff0a 4739 95ef ccba 7b17 95b8
000002b0: 8993 fe39 ec0e 323b b3a3 12b8 9706 083b
000002c0: 350b fc37 deae 9337 3066 1e36 43e5 44b7
000002d0: 374f 93ba 528e de3b 0050 2339 13f0 a739
000002e0: 540b 94b7 8f5a 6fbd 67d3 8037 719f 90b8
000002f0: 5bfa cab7 850f 80b8 d795 42be bd2d 9e3a
00000300: 2191 b63a 13cf 2a3e 7bf2 163a 5b4f 4dbb
00000310: 9987 523b 2cb1 193a f869 1837 46ca 48b9
00000320: 534a 94b7 3873 88bb a7a9 2139 9248 b3bd
00000330: a933 9339 1e0e fe3c f6e4 d238 b9b7 20b8
00000340: e460 2d3b 48bc ed36 708f 893b 9107 a537
00000350: 71f3 6cb3 6c56 b3bb d141 5936 c9df 273c
00000360: 7001 4f38 cf6c 563a 9b42 52bc 5a53 16b8
00000370: a98a ea39 917c b23a 7410 90b7 dbbc c039
00000380: cbe5 08b9 bd7a 8bb8 a990 a23b 6824 30b8
00000390: 2e72 313c f64c e0bb b592 e63b 1939 293b
000003a0: fbb4 13b9 c166 e1bd 906e da37 c2fc ba37
000003b0: 0bb9 eab9 9368 df39 6385 313a a916 a839
000003c0: 7bfe da36 7404 e039 96ad f8b7 bcd7 d2b7
000003d0: 5093 41b9 c6ae d739 2d89 29bd a799 04b9
000003e0: 92db 883a cdc1 b935 0f49 253b 72f7 ac3b
000003f0: 09ac d6bd d196 56b7 413c 55b7 a64f 0fba
-7.1981217e-06 0.08412841 -0.00033496274 -0.2022455 0.020123303 0.007507207 0.0053263013 8.587428e-07
0.0007297719 -0.99948585 7.370978e-07 -7.3283686e-06 -0.7130358 4.4227978e-05 -0.00027437715 0.022942577
0.041296054 0.00017997445 -1.38093e-05 -0.022069087 0.027732577 1.8002354e-05 0.0016112354 -0.000223653
2.2426173e-06 0.12436648 -0.013934295 -9.965341e-07 0.04350648 -0.021125078 0.0003707927 -7.0779024e-05
0.00012858998 -0.006047042 0.02457447 1.48439585e-05 3.8021328e-05 2.9711193e-05 -9.622358e-05 0.13233969
-0.0006258921 -3.7475038e-05 0.0005311517 -0.0046730624 2.4764335e-05 -0.0065231705 0.8329367 -2.903605e-05
-0.0008198988 -0.0053307447 -0.99684525 0.0012933887 0.0002574113 0.053531013 -8.8360735e-05 -0.04824762
-0.00017985803 0.0058294027 6.5516564e-05 1.1131272e-06 0.0013731595 -1.6153765e-05 0.039085522 -0.006989079
0.07223 -6.4033015e-06 0.014514229 0.00010749632 -4.7702433e-06 -7.657231e-06 0.0004820099 0.9992768
0.0001345113 -0.070725605 -0.99908376 -0.0077021793 -0.200183 0.4750471 -8.356842e-06 -0.0005116242
-9.630754e-05 -0.006457691 -0.0013148435 0.00011534912 0.000570387 -2.6256153e-06 -0.00047298017 0.05153676
2.1273888e-06 0.002689786 -0.00017326348 0.0017979852 -0.0001731304 0.37683418 2.3948449e-05 2.8748645e-05
0.18783157 0.0010665879 -0.01055733 -0.0027799176 -0.05869402 3.2902333e-06 3.8161143e-06 -9.918473e-06
-0.06290267 -0.0003302487 -0.0712147 5.6130925e-06 0.3691187 -0.06054424 -0.003717548 -0.0006527414
0.01165735 -0.07951944 -0.008187294 -9.329849e-05 -0.16702378 7.351513e-07 1.9871613e-05 0.10612855
0.0433618 0.13523805 0.00010883739 8.623327e-05 7.973773e-06 0.0082638925 0.064628005 -1.17377585e-05
0.0015301363 7.963677e-05 0.014013643 -0.051613286 -0.0012972136 -0.0016461333 0.09753271 -0.0026072809
0.002654413 0.002006746 -0.20929705 0.000873015 1.24379e-05 -1.4961008e-05 1.695045e-05 -0.032079227
-1.7818329e-05 -0.001003438 0.00014003502 0.0035028115 0.0007908839 0.13267708 0.00055736676 -0.0046613943
9.941801e-06 0.00030752757 -9.75568e-05 0.000564813 -6.6880835e-05 0.028977197 0.00021510554 -0.021860125
0.0056260806 -0.001528945 2.1531076e-05 -0.0011653401 2.1742397e-05 1.6576008e-05 0.00978724 -0.0040109623
0.00030237585 0.00018982215 -0.0015635366 -7.109247e-05 0.00048556578 0.0027169539 -3.496157e-05 0.002075588
3.004596e-05 1.7605194e-05 2.3603316e-06 -1.17358895e-05 -0.0011238818 0.0067918682 0.00015574694 0.0003203159
-1.764825e-05 -0.058435973 1.5357231e-05 -6.896153e-05 -2.4196857e-05 -6.106406e-05 -0.19002472 0.0012068074
0.001392875 0.16680555 0.00057581783 -0.0031327817 0.003212428 0.00058628875 9.084579e-06 -0.00019148839
-1.7677585e-05 -0.004164126 0.00015417357 -0.08754076 0.00028076515 0.031012591 0.000100562276 -3.8318078e-05
0.0026455456 7.0850692e-06 0.0041980073 1.9673056e-05 -5.516944e-08 -0.005472949 3.237383e-06 0.010246226
4.9353985e-05 0.0008179666 -0.012833263 -3.5840414e-05 0.00044735268 0.0013617446 -1.71738e-05 0.00036761802
-0.00013055575 -6.650898e-05 0.0049610925 -4.1995576e-05 0.010830445 -0.006845112 0.007036532 0.0025821386
-0.00014086433 -0.11005927 2.603911e-05 2.2290627e-05 -0.00044769826 0.00042611788 0.00067718903 0.0003206034
6.5265317e-06 0.00042727927 -2.9644736e-05 -2.513441e-05 -0.00018460792 0.00041138212 -0.041390587 -0.00012645741
0.0010441414 1.3839978e-06 0.0025220548 0.005278521 -0.10482032 -1.2790509e-05 -1.2709818e-05 -0.00054668856

hidden_cell f4 [2, 1, 128]
00000000: e546 ecba 0819 b140 73b9 a0bc 058b 8abf
00000010: 4e5a 973f d536 0241 f36c 8640 7030 ea39
00000020: c94f dd3c bc4b c3c0 fd09 233a 9428 d6ba
00000030: 3959 97bf a7be 1e3c a812 55bd f147 7f3f
00000040: 0d62 983e 7e46 173c 64fe 02bd f3ce b1c0
00000050: e252 973f a96d 9b3b 7277 db3b f215 6cbc
00000060: c77e 233a ded8 2840 b275 bfbe e9b9 88ba
00000070: 011f 473f d011 0ebd b65d dc3c 3084 92bb
00000080: 7067 353c c68c dfbe 5a35 0f41 60c9 7c3b
00000090: bef1 773a a08e d23b ace5 b7ba f965 1640
000000a0: f868 aebc 24bd 59bb 647f 1e3d 3d77 13c1
000000b0: fe12 c33c 57f5 81bf 92cd ed40 8225 72bb
000000c0: fc52 82be ccb7 6cbf 407d 99c0 bf51 473d
000000d0: 4630 593e caba 1b41 50b2 10bc ba13 abc0
000000e0: 17cf 38bc 178a 2441 b969 fc3b dd40 053a
000000f0: ab0c ed3c 1fde 06bb 90de 9a40 8749 e4bd
00000100: 8c1c 0341 e6de 3abb 0193 bd3d e0cd 2f3c
00000110: c833 f8ba 5ffd 2dbb bead 5f3d 9157 ca40
00000120: 4edf c33c 4190 69be 3fab 13c1 b072 cbc0
00000130: 5b7f 15c1 331b 073f 2c12 56bb dc71 d0bc
00000140: 4802 54bb 7b3d babd a477 33bd d60c 193c
00000150: 325b 9f3c 84fd c2ba 7f5c 88bc 70d3 fa40
00000160: c4b8 8e3a dc0b a63c c97c 4dbc e03d 333b
00000170: 0001 00bd 746b f93e 6ac8 113c 1e1a 303c
00000180: 87de 3141 3d27 4c3d 6fb9 c3bc 7793 12c1
00000190: d2c4 47bf 92c4 bd3a 54c9 a33a c368 dbba
000001a0: 906e a0be 6fd9 b1bc e6e9 7ebf 7694 253b
000001b0: 529b 043f e8ff 6ebe 50c2 83bf cd2b 22bd
000001c0: b1b1 f33d 8b3a 39c0 674d 32be 9a34 48bb
000001d0: a6dd 2cc1 80e0 173a e67f 653b c29b 2941
000001e0: 20c3 5040 0838 6b3f a404 c940 000f 473c
000001f0: 659f 1f3b 1e6b 2140 d171 5440 ec85 19bb
00000200: d2bf 183d 6b02 393c 423b fc3d 1ba3 79bf
00000210: c453 fbbc 95f3 38bd c71f ad40 6e2b 59bd
00000220: 9a90 5b3d e8f3 4f3d 8083 debe d313 e93c
00000230: effd 1e3b d593 83bb e4ee 843b 33d2 4ebe
00000240: 790d 8abb b174 1cbd 2384 453c 7582 673d
00000250: 4521 103d 1e35 f640 cd91 123d bad1 0ebe
00000260: f3a6 c33c d63c b73c c4b3 25bc 0b5d 123d
00000270: 73c4 6fbc afe6 2141 71a3 8d3c 1e40 75bf
00000280: 73ea 413c 1cb1 40bd f18a a83b c6e1 15bd
00000290: f7e5 833b 689b 9b3b 9284 e73d 9758 cdbd
000002a0: a74f 963c a0b5 393c ccc0 39bd a091 f1bb
000002b0: 92c2 ce3c c518 263d 0f76 b0bb 528f 213d
000002c0: 9d67 9f3b eee1 343b af11 ba3d 5806 4cbb
000002d0: b4c9 0fbd dfe7 2041 88c1 5e3c 4b56 743c
000002e0: 178f 15bc ecc7 73c0 03fc 903b d16b 43bc
000002f0: df8f aabb bc44 13bc 28f6 32c1 4034 2c3d
00000300: 194b a640 da5e cd40 851d f43c 9534 5abd
00000310: 70be 073f 5670 ef3c 65b7 223b 2a21 76bc
00000320: 76d1 6fbb ed6c 23be b743 593c 5d8f 3ac1
00000330: 2a47 823c 628d 853f 1c04 073c feaf 58bc
00000340: 3a47 423d cf7c 003b 784e e53d 32ff 973b
00000350: ab29 d0b8 a4d6 c0be 2433 c93a 5a72 203e
00000360: 788e 013c e348 d83c a1f8 cfbe 3e74 d2bb
00000370: bb85 b43c e487 9440 8dd4 71bb 596b 963c
00000380: 144b 60bc 13a0 15bb 10ae 933e b742 bfbb
00000390: a578 173e a4f5 06c1 a08c 1b3c 7f89 1c3d
000003a0: dffc 23bc 8fe2 74bf b826 a53b c913 803b
000003b0: 8362 babc 7138 d13c 3f70 243d 7824 913c
000003c0: 025b 203b 2cc8 a73c ad0a c2bb d443 8dbb
000003d0: 86bf 77bc ed6a ba3c deb5 36c1 42d4 2fbc
000003e0: 65c1 ea3c d6c9 8f3a 5eab 233d e42f e83d
000003f0: 5c7c 99c0 8614 75bb 3b38 37bb ed21 babc
-0.0018026499 5.5343056 -0.01961968 -1.0823675 1.1824434 8.138387 4.2007995 0.00044668047
0.027015584 -6.102995 0.0006219445 -0.0016338998 -1.1824104 0.00968901 -0.052019745 0.9971915
0.29762307 0.009233115 -0.031980887 -5.5565124 1.1822169 0.004743297 0.0066975886 -0.014409529
0.0006236848 2.6382365 -0.37394482 -0.0010431382 0.77781683 -0.034684956 0.026900154 -0.0044713244
0.011072025 -0.4366209 8.950525 0.0038572177 0.00094583246 0.0064256936 -0.001403024 2.349974
-0.021290287 -0.003322431 0.038695708 -9.216611 0.023812767 -1.0152997 7.431344 -0.0036948626
-0.25453937 -0.9246795 -4.7965393 0.048661944 0.21209821 9.733103 -0.0088315755 -5.346158
-0.011279843 10.283713 0.007703033 0.0005083213 0.028936705 -0.0020579172 4.8396683 -0.11146837
8.194469 -0.0028514205 0.092565544 0.010730237 -0.001893633 -0.0026548726 0.054609053 6.3231893
0.02391019 -0.22808935 -9.229308 -6.35775 -9.343593 0.5277588 -0.003266464 -0.025444917
-0.0032349993 -0.09093758 -0.04381527 0.009341439 0.019452665 -0.0014876579 -0.016645668 7.8383102
0.0010888805 0.020269327 -0.012541958 0.0027350113 -0.031250954 0.48714793 0.00889788 0.010748414
11.116828 0.049842108 -0.023892133 -9.161002 -0.780347 0.0014478138 0.0012495914 -0.0016739595
-0.31334352 -0.021710126 -0.9957565 0.0025265492 0.517995 -0.23339808 -1.0293674 -0.039592553
0.11899126 -2.8941982 -0.17412339 -0.003054893 -10.804113 0.0005793646 0.003501886 10.600527
3.2619095 0.9188237 6.2818165 0.012149572 0.002435648 2.522163 3.3194468 -0.002342577
0.03729231 0.01129208 0.1231599 -0.97514504 -0.030679591 -0.045154173 5.410129 -0.053019933
0.0536047 0.050769717 -0.43459702 0.028451836 0.0024260243 -0.0040154257 0.0040567983 -0.20197372
-0.004213032 -0.038197223 0.01205543 0.056520898 0.03518798 7.693984 0.035783578 -0.13947192
0.023883319 0.022367876 -0.01011366 0.035733264 -0.0146342395 10.118819 0.017289849 -0.9580096
0.011835682 -0.047043905 0.005143516 -0.036592267 0.0040252167 0.0047487505 0.11304583 -0.10026663
0.018348528 0.011334807 -0.04534988 -0.007372096 0.025239263 0.040550966 -0.0053851674 0.03944332
0.0048646466 0.0027600485 0.09085404 -0.003113171 -0.03510447 10.056609 0.013595946 0.014913152
-0.009128354 -3.8090773 0.0044245734 -0.011927561 -0.005205139 -0.0089885555 -11.185097 0.042042017
5.196667 6.4178286 0.029799232 -0.053272802 0.5302496 0.02922837 0.002482855 -0.015022555
-0.0036593354 -0.1595952 0.013260773 -11.660001 0.015903074 1.0433772 0.008240726 -0.013225554
0.04743121 0.0019605642 0.11196607 0.004638576 -9.925974e-05 -0.37663758 0.0015350324 0.15668622
0.007907502 0.026401943 -0.40619376 -0.0064225486 0.022036424 4.641588 -0.0036900372 0.018361734
-0.013689775 -0.0022831007 0.28843737 -0.0058368105 0.14792116 -8.434971 0.009493977 0.038217064
-0.01000902 -0.956582 0.005040016 0.0039086086 -0.022752052 0.025539609 0.04014611 0.017717585
0.0024468307 0.020481192 -0.005921683 -0.0043110643 -0.015121346 0.022756064 -11.419401 -0.010731759
0.02865667 0.0010970186 0.03995835 0.113372594 -4.7964306 -0.0037396266 -0.00279571 -0.022721255

weight_ih_l0 f4 [512, 6]
00000000: 8d44 6f3e 79ab ad3e 3769 c73e 535c 043f
00000010: c68c aa3e 1a1e fd3e 8385 fa3f b070 32bf
00000020: 2ede 26bf 0c9e e7be 5ff2 c1bd 172b b0bd
00000030: 6688 983e 7653 303e 13b4 633e 6311 db3e
00000040: d1ca 9b3e 99ed 963e 695b 47bf b37d f93d
00000050: 0b87 3fbd f360 0dbe 95e5 e1bd 14ee 00be
00000060: 1955 5a3f cf02 dbbe 5a49 0dbf 5a2f aabe
00000070: 9106 14be c77c 32be 45b0 41be 8a85 36be
00000080: 172e 7abe 94b5 adbe 2c67 ccbd 6e91 03be
00000090: 1017 553f 40ec a7bd f1a7 efbc 05e3 ee3d
000000a0: 320b 5f3e 5cb9 3b3e e51a 303f f601 a53e
000000b0: 5b99 e43e 867f fc3e 2f91 343f 47a8 383f
000000c0: 18a7 3d3f c34c 7a3e 4c63 833e c71a ac3d
000000d0: 154d 67bd 5d42 e3bd 045f 19be 9595 c43e
000000e0: 2b8c b73e 0b7d cc3e ea6c 8c3e cd8e 983e
000000f0: 2e75 df3e b03a eb3e 4776 cb3e 3223 123f
00000100: bbe5 023f 3fff de3e b181 e43e 15c9 933e
00000110: 6ebc ce3e ef73 9e3e 64b4 b03e d29f c03e
00000120: 672f 4f3f fbc9 39be 80cc dabd c692 d83d
00000130: 7f56 ee3e b437 d13e 41d4 2c3f c3e4 de3e
00000140: 8b55 d63e dea9 143f 1e85 df3e d55b fe3e
00000150: 88e5 173e fa48 473e a051 553e 2a75 693d
00000160: 2c59 073f 121b f93e 9497 873f 0e24 28bf
00000170: 8aef 23bf 3e36 29bf 1fcc 40be 5814 88be
00000180: e065 083f 2c5d a03c 85e7 553d d638 793e
00000190: f5ed be3e 3150 ed3e a64f 263f 4e31 053e
000001a0: b210 083e 6618 a83e d6dc 823e 07b5 a23e
000001b0: ab48 573f c71f af3d 7d97 613d d26e 833d
000001c0: a517 863e b5ad a53e d750 af3e 4d45 e8be
000001d0: 256e f0be ac12 a3be a40d aebd bcc9 74bc
000001e0: 9a4c 00bf 1bfd 03be 82cf 28be d5d4 2dbc
000001f0: 607e 68be 95b1 acbd 3d0d 913c 8d3b 0d3e
00000200: eec8 6b3e 1405 ab3d 9708 053f a559 0a3f
00000210: fdb5 0ebf fe26 113f f332 0f3f d674 a93e
00000220: 8eb2 423f b76e 1d3f 6426 0d3e edae 5c3e
00000230: e504 5a3e b3a6 b43e ebd7 9d3e cff9 963e
00000240: aad8 733e 2dc4 703e 0279 8b3e e82e ca3e
00000250: 921d 253f 6364 1c3f 474b 5c3f 897f 023d
00000260: cb6f 47bd 13e3 ab3d 5f4a e33d 91c2 3a3e
00000270: 4fdf 94be 898a ea3d 9092 263d 0ed7 92bd
00000280: 53d7 a03b a795 5e3b b439 8c3e 432b d83e
00000290: 1651 b43e ccb6 8a3e 8770 6a3f 0fd8 4f3f
000002a0: da04 5f3f fb17 0c3e 5dae 473e def7 873e
000002b0: d2ab 7c3d 1e2d c83d 5455 75bf 9766 653e
000002c0: bbc8 753e b9c0 0b3d e2ea 503e fe76 753e
000002d0: f199 1b3f 56e6 823e 496e 103e bc16 b8bd
000002e0: ab9e 033f 8205 1b3f 83f3 773e 6fd7 8a3e
000002f0: 37ea 733e 636f 853e a4a3 ba3e 2387 c43e
00000300: a3b5 0bbd 6378 933e c85f 813e 8212 a83e
00000310: add0 be3e 297d 013f 26a0 d03f 50cb a3be
00000320: 0416 7dbe a246 08be 405d d93e 01d1 d13e
00000330: 2b9f 383f 2854 88bd faae 87bd 49b4 6cbd
00000340: 0b88 fcbb 0622 1bbd 5cd7 733e 4897 d93e
00000350: 05ee d93e 08a5 133f db9c da3e 72e8 f63e
00000360: 96a4 943e 6a7b 3a3f 8cc3 283f e4fc 283f
00000370: 33d7 3b3f 8939 583f bf43 07be 7985 933d
00000380: 2c9d c63d 6a5c 583e c302 1e3e a35d 873e
00000390: bbc2 1b3f ec43 743f 7020 8d3f 392f c93f
000003a0: 69b0 f33f e75d 2040 ddf7 96be 5ecf 883c
000003b0: fd2b 00ba dbe7 a73d 9103 c03c 86f0 923d
000003c0: 0b6d 533e 8fa5 e53e f25c dd3e 32c8 af3e
000003d0: ba10 fe3e deb8 1b3f 1219 573f 208e 4c3e
000003e0: 8976 473e 0d56 e83e ddfc 063f a89a 0b3f
000003f0: 1349 273f b644 b93e 2eaf 8c3e 9c80 c43e
0.23365994 0.33919886 0.3894746 0.51703376 0.33310527 0.49437028 1.9571995 -0.697032
-0.6518277 -0.45237768 -0.09470057 -0.08601969 0.29791564 0.17219338 0.22236662 0.42786703
0.30428174 0.29478148 -0.77873856 0.12182178 -0.046759646 -0.13806514 -0.110301174 -0.1259082
0.852861 -0.4277558 -0.5519005 -0.3323925 -0.1445563 -0.17430411 -0.18914898 -0.17824379
-0.24431644 -0.33927596 -0.09980616 -0.12848446 0.83238316 -0.08199358 -0.029254885 0.11664394
0.21781614 0.18332428 0.6879104 0.3222806 0.4464825 0.49316043 0.7053403 0.7213177
0.7408309 0.24443345 0.25661695 0.08403545 -0.056469996 -0.11096642 -0.14977652 0.38395372
0.35849127 0.3993915 0.27426845 0.29796448 0.43644089 0.45943213 0.39738676 0.57084954
0.5113179 0.43554112 0.44630197 0.2886435 0.40378135 0.30947825 0.34512627 0.37621933
0.80931705 -0.18143456 -0.106835365 0.1057487 0.46550366 0.4086281 0.67511374 0.43533906
0.4186214 0.58071697 0.43656248 0.49679437 0.14833653 0.19461432 0.20831919 0.056996502
0.5287044 0.48653466 1.0593133 -0.65680015 -0.6403738 -0.6609839 -0.18827866 -0.2657802
0.5328045 0.019575678 0.052222747 0.24338087 0.37290922 0.46350244 0.64965284 0.1300709
0.13287619 0.32831115 0.2555911 0.31778738 0.8409526 0.08550983 0.05507611 0.06417622
0.26189914 0.3235909 0.34241363 -0.45365372 -0.46959034 -0.31850183 -0.084986955 -0.014940675
-0.50116885 -0.12889521 -0.16485408 -0.010609825 -0.22704458 -0.084323086 0.017706508 0.13792248
0.23025867 0.08350578 0.5196623 0.54043037 -0.5574644 0.5670012 0.5593712 0.3309695
0.760537 0.6149706 0.13784176 0.21551104 0.2129093 0.3528343 0.30828795 0.29487464
0.2381312 0.23512335 0.2724076 0.39488912 0.64498246 0.6109068 0.86052364 0.03185991
-0.0486906 0.0839292 0.110981695 0.18238284 -0.2907662 0.11452205 0.040667117 -0.07169925
0.004908481 0.0033963711 0.27387774 0.42220506 0.35218114 0.27092588 0.91577953 0.81189054
0.8711678 0.13681023 0.19500108 0.26556295 0.061687298 0.097742304 -0.95833325 0.22402416
0.24002354 0.03411934 0.204021 0.23971173 0.6078177 0.25566357 0.1410457 -0.08988711
0.51413983 0.6055528 0.24213986 0.27117488 0.23819815 0.26061544 0.36452973 0.3838435
-0.03410877 0.28802785 0.25268388 0.3282662 0.37268582 0.50581604 1.6298873 -0.31991053
-0.2471543 -0.13308194 0.42453957 0.4097977 0.7211787 -0.066566765 -0.06625171 -0.05778912
-0.0077066473 -0.037874244 0.23812622 0.4249823 0.42564407 0.5767369 0.42697796 0.48224217
0.2903182 0.72844565 0.6592338 0.6601088 0.7337524 0.8446279 -0.13209437 0.07203192
0.09697947 0.21129003 0.15430741 0.26438627 0.6084401 0.9541614 1.1025524 1.5717536
1.9038211 2.5057313 -0.2948598 0.016700443 -0.0004889367 0.0819852 0.0234392 0.071747825
0.20647065 0.44852874 0.43234974 0.34332424 0.49622136 0.6082896 0.8402263 0.19976091
0.19478811 0.45378152 0.5272959 0.5453286 0.6534588 0.36185235 0.27477401 0.3837937

weight_hh_l0 f4 [512, 128]
00000000: 4ab6 d6ba de68 3dbe 13be 8bbe ec3a 2ebd
00000010: 6a65 1cbe a277 d2be 1f8e 58be d33b b6be
00000020: f096 11bd 92c7 f93e 2ddb f4bc de55 5abc
00000030: 9ba7 74bc 993f 82be 5335 23be 20f3 6f3d
00000040: cea2 9f3e 024c d03d dd5a 7e3d 4b55 3abe
00000050: 4865 383e 1c1d a3bd 7283 a73e 13c4 713d
00000060: e94f a23d 5fff dcbe f4c1 473d 8b33 f4bd
00000070: 2c6c 893e e6f1 c4be 18b5 2a3e eeef 893e
00000080: f8d0 3a3e ebeb 55bd 8f60 92be a357 c1bb
00000090: be0f 13bd 0c18 763d dbef 85be fef5 3e3e
000000a0: 58fa 1cbc 2887 453e ee36 a03d 0878 073a
000000b0: 0e7d 3ebc 0972 d43d e704 c5be 00a5 db3c
000000c0: 9eb3 febd 945b 3f3d 1360 193f 6e74 6a3c
000000d0: 4ac9 983d a2d6 17bf 7468 4b3d aa94 353e
000000e0: 670c 0fbe 81ad 4bbe 40b5 803d 73f3 653d
000000f0: c69e 01be 8d05 51bc 80ff 81be 9eb3 453d
00000100: 7249 6abe 3a80 053d 86c9 9ebc 565e ae3d
00000110: 5289 243d 798e 85be 36b6 8e3d eaca f6be
00000120: c656 f6bd a06f 14be 86c0 f73e 47a2 a83e
00000130: 324f df3e 1638 92be a740 4c3d 084d 99bc
00000140: 02a2 16be 4f4c 41bc 8b72 c43d f942 febd
00000150: 7f1b 143e b00b 3c3e 680e bbbd ac12 cdbd
00000160: d331 743b 28c3 923d ae03 f8bd 778c d4bd
00000170: 1593 963e 2be6 1abe f348 9fbc bdbf 213d
00000180: 60a8 b2be 13d7 5f3e a933 e33e c073 64be
00000190: dcd5 fcbb ab62 9e3b f5cf bebd 1889 023e
000001a0: 69d0 63bd 0ef4 83bd 4a58 5b3d 9a6e 8e3d
000001b0: 199e 3d3d 2125 c83d 6977 d1bd a3f0 963b
000001c0: d720 2e3c 9058 c13e c014 d03d 1f82 3bbd
000001d0: b258 ca3e 9e0d eb3d c418 9fbe ec2e 56be
000001e0: 1ca4 8ebe a745 38bf 7da4 663c 531b dcbb
000001f0: 0cf3 a63c 04b2 8bbd 406d b5be 6aa6 463e
00000200: 8246 97be 564a 1e3f c4f4 c4be f780 11bf
00000210: e91a ce3e 2247 073f 9d6d 2c3f 0338 263e
00000220: 424d 443e db3f 0a3e c9d7 3bbc 6c78 d1bc
00000230: aafe 82be d58d acbe 6f1d 423d 4151 473f
00000240: 2139 8a3e 319b b63d a1b8 6abe aa9a c7be
00000250: 8fca 13bf 5f13 4abc a6d5 8f3d 3922 9cbe
00000260: d28f 2abe 6b9f 7d3d 4afa 61be 7e67 b13e
00000270: 9bbe bc3e fb7a 3cbc 00c5 3abe 7446 dcbc
00000280: 763e 0fbe 96af 89bf 0f50 283f e5b3 0d3d
00000290: 32bc 703e ac18 77be 45ab 84be 5760 c1be
000002a0: fe47 333e 8b2d 20be 3543 7d3e e38e 12be
000002b0: c2fd 0dbe 9ed7 26bd f744 933e 8f7d 99be
000002c0: c239 ecbe 5c3e 33bf f031 4c3e 90b9 f53d
000002d0: a492 a1bd d1a0 273e 637d a43e 2ab7 4fbf
000002e0: 3279 09ba 325a 013f acb1 0cbe 848b 983c
000002f0: 4d59 b13e f45d f33d 3fb4 5d3f 7aea 363e
00000300: 65ee 4f3f 8cd4 083d e30d b53e e827 b4bc
00000310: 8d68 133e d756 c33d c5d1 b03d 9e09 b63d
00000320: 5399 d4bd 313f 67be 28b3 bc3c f1b0 2ebf
00000330: 42f3 40bf fec3 bcbe 9b77 473e e1ba 84be
00000340: 5668 513e 04ad 7fbe a669 c7be 9c24 08bd
00000350: a147 0b3e bf0a e4bc 4fb8 aa3e 80a2 c93e
00000360: 036b 49be 113d 1a3f 5ab2 d33d 4f6b 5b3e
00000370: 81a4 b7bc cac2 9cbe fe5c c7bd 843d 86bd
00000380: 1646 3c3f 822d 1d3e ff82 a2be 1238 7dbe
00000390: 8e62 18be 5a11 a0be 7703 6bbe b42d 78bc
000003a0: 5146 9cbd c86f 3e3e 8378 0fbf c92e 0a3d
000003b0: 5681 d43e 1344 603d 56c1 c1be d1d6 6fbe
000003c0: a084 c63c 3404 f5be d74f 40be 7464 70bd
000003d0: 630d edbe 0583 db3d c2c6 963d 9900 403f
000003e0: 7f6c 133f 183d f9bc 6f86 de3e 390d 893d
000003f0: 0326 803c d318 0f3f 2703 813e eb40 40be
-0.0016381231 -0.18497035 -0.27293453 -0.04253666 -0.15273061 -0.41106898 -0.21147965 -0.35592517
-0.035544336 0.48785073 -0.029889667 -0.013326136 -0.014932538 -0.25439146 -0.1593831 0.05858147
0.31178898 0.10170747 0.062098373 -0.18196599 0.18007386 -0.079645365 0.32717472 0.05902488
0.07925398 -0.43163583 0.048768952 -0.119238935 0.2684034 -0.38465804 0.16670644 0.26940864
0.18243778 -0.052226942 -0.28589293 -0.0059003397 -0.035903685 0.060081527 -0.26159558 0.18648526
-0.009581171 0.1928984 0.07822977 0.00051677274 -0.011626495 0.10373313 -0.38480303 0.026812077
-0.12436603 0.046718195 0.5991222 0.014309986 0.07460268 -0.5931188 0.04966016 0.17732492
-0.13969575 -0.19890405 0.06284571 0.056140374 -0.12658224 -0.012757671 -0.25390244 0.048267
-0.2287958 0.03259299 -0.019383203 0.08514087 0.04017002 -0.2608526 0.06968348 -0.48201686
-0.120282695 -0.14495707 0.4838907 0.32936308 0.4361511 -0.28558415 0.049866345 -0.01871349
-0.14710239 -0.011797979 0.0959216 -0.12415118 0.14463614 0.18363833 -0.09133607 -0.10013327
0.0037261143 0.07166129 -0.12110077 -0.10378354 0.2940909 -0.15126865 -0.019443965 0.039489496
-0.34894085 0.21859388 0.4437535 -0.2230978 -0.0077159237 0.0048335395 -0.093170084 0.1274761
-0.055618677 -0.06443034 0.053550996 0.06954689 0.04629335 0.09772707 -0.10227854 0.004606323
0.010627947 0.3776288 0.10160208 -0.04577839 0.39520794 0.11477207 -0.31073582 -0.20916337
-0.2785958 -0.7198128 0.014077303 -0.0067171245 0.020379566 -0.06821063 -0.35434914 0.1939942
-0.2954598 0.6183218 -0.3846799 -0.5683741 0.40254906 0.52842915 0.67354757 0.16232304
0.19170097 0.13500921 -0.011465021 -0.025570117 -0.25584918 -0.3370196 0.04739135 0.7785836
0.2699671 0.08916319 -0.22921993 -0.38985187 -0.57730955 -0.01233372 0.07023172 -0.3049486
-0.16656426 0.06191961 -0.22068134 0.3464927 0.3686417 -0.01150393 -0.18239212 -0.026889063
-0.1398867 -1.075671 0.6574716 0.03459539 0.23509291 -0.24130505 -0.25911918 -0.37768814
0.17507932 -0.15642373 0.24732669 -0.1431232 -0.13866332 -0.040732972 0.28763554 -0.29978606
-0.46137816 -0.7001703 0.19940925 0.11998284 -0.078892976 0.1636994 0.32126912 -0.8113886
-0.0005244195 0.5052825 -0.13739651 0.018621214 0.34638444 0.118831545 0.8660316 0.17862883
0.81223136 0.033405825 0.35362157 -0.021991685 0.14395352 0.09538048 0.0863376 0.08888553
-0.10380807 -0.225827 0.023034647 -0.6823874 -0.7537118 -0.3686828 0.1947922 -0.25923827
0.20449957 -0.24968344 -0.3894779 -0.03323804 0.13601543 -0.027837155 0.3334374 0.3938179
-0.19669728 0.6024943 0.10336752 0.21427654 -0.022417309 -0.30617362 -0.09734534 -0.06554702
0.7354444 0.15349391 -0.31740567 -0.2472842 -0.14881346 -0.31263238 -0.2295054 -0.015147615
-0.07630599 0.18597329 -0.5604326 0.033736024 0.41504925 0.05475242 -0.37842816 -0.2342179
0.024233162 -0.4785477 -0.18780456 -0.05868955 -0.46299276 0.10718349 0.07362129 0.7500091
0.57587427 -0.03042464 0.4346194 0.06691975 0.015643125 0.55897254 0.25197718 -0.18774764

bias_ih_l0 f4 [512]
00000000: 14ab 08bf dd2f e33e 2e8c bcbe 3cc3 fe3c
00000010: 6fb1 4a3e 2da0 af3b 2192 d8bc 117e 13bf
00000020: c718 c2be 63cd 29be ce9e 1abf 0171 f2be
00000030: 8b8c 9e3d 85f6 6bbe 2a11 fbbc 7b04 b33e
00000040: 8afe b7be 5e25 e7be 842e 74be 25c5 803e
00000050: 0229 4c3e 5967 c2be 0cc4 1cbf e7b5 cbbe
00000060: 2afc febe b356 18be c990 c8bd 6b00 52be
00000070: e1d6 23be 3373 d3bd 222c 5fbe 9c89 ebbe
00000080: 7e05 67be eafb 943e 54df b13e 3f86 c4be
00000090: ec3a 02bf e326 95be 146b 06be 051d c3bd
000000a0: 7778 88be a529 05bf 0a37 e7bd 5116 743e
000000b0: f801 18be 9ae1 89bd af3c 403d c365 07be
000000c0: 3872 9bbe bd6b 573e 7fd4 b1be 5a0d b7bd
000000d0: e65e 26be 7727 aabc 1215 10bd f474 5c3e
000000e0: 05c2 abbe 1e9e ad3e 86a6 4cbe e6ed 2dbf
000000f0: cb68 fdbd 4259 99be 5b5a f43c def5 41be
00000100: 6104 d63e 4952 dcbe 325d 133d 051e 9dbe
00000110: d3f0 6dbe 941d 44be a2a3 87be 6314 30be
00000120: c476 46be 03bd a0be dbe6 9a3b a3af 6d3e
00000130: 4b27 06bd 7ec4 ecbd 77f9 fcbe fe64 78be
00000140: 7eb5 78be 8786 93be 2053 03bf 1205 51be
00000150: 33e9 62be a030 efbe eae8 40be 41b8 603c
00000160: 3693 25bf cbb9 afbe 88dc 5dbe b7cd 0ebf
00000170: 6f6e 7abe 5e4c bcbd 2bbd ddbe aabc 88be
00000180: 99d0 fe3e cebc 94be 5935 83be c018 603e
00000190: 38f4 80be 52de 31be bfab 8abe b2a0 f3be
000001a0: 5ed3 07be ec1b e2bd 38c5 683d 6df5 dcbe
000001b0: 5b43 31be 2b9b 0bbe 7411 0c3e 347a fabd
000001c0: 301e bcbe 36d8 823e f4b6 313d c127 8fbe
000001d0: 36f9 ef3e 4aad fcbe c737 88be 870b 113f
000001e0: 6152 23bd 9fa2 93be b77d 04bd 00c2 8dbe
000001f0: bdd8 03bf 87aa 3dbe da34 693d 1a22 00bf
00000200: 56f6 91be aea0 993e 7194 263d 983f fb3d
00000210: d9cb 803e 03bb 7d3e d2a9 6d3e 9db4 63be
00000220: b932 12be 3d2b 063e 3d44 edbe 00c9 8cbe
00000230: 6230 b83d 5adb 80be d933 6a3e 3870 a3be
00000240: f58b 0c3e b42a 2ebe 40e4 52be e1d5 213e
00000250: 3d55 b93c 66c5 78be fab4 f5be 3c12 d9bd
00000260: b47d 3cbe 7c80 87bd dc91 14bd 7554 26be
00000270: 0639 253e 354e be3e 5f73 fcbe da78 c8be
00000280: 1b21 a9bd 010e 19be 475e c93e 9085 25be
00000290: bbd0 edbd 656e c1be 557e 123e 906a 1b3e
000002a0: e970 9abe d699 943c eea1 8dbe 6e1e 5c3e
000002b0: 9db7 fdbd 60e8 a63e f76b 3c3e d14e 0fbe
000002c0: e5a9 15be f27f 973d 0448 413e 916f 30bc
000002d0: 977c 9dbe d2f7 c73e 8eb9 1bbe 48a5 6b3e
000002e0: 78b2 c6be 2bd2 ad3c 32ac bdbe 99ab a1bd
000002f0: 090e 88be c0ba f9bd 22e7 0a3d 6d58 88bd
00000300: c26c 4c3e 5898 b8be 6cdb 33be 46a3 9fbe
00000310: 3b0a a5be adf7 cdbe 31b9 283e ad44 993e
00000320: b4e6 21be e9a1 2d3e 0909 1d3f cb09 7b3e
00000330: 01c4 813e d25b 1bbe e9fa b4be ea52 d3bd
00000340: c428 44be b369 17be a3c8 19be a717 afbe
00000350: 666b 74be 08b0 cdbd 8865 57be b50d 873e
00000360: 6483 04bf 0cec 9fbd 8d1f 98be 12ca 27be
00000370: 558d 073d 3736 84bc dbc0 5fbe 6468 f5bd
00000380: 5a17 6f3e 1dd2 38bc 6c87 aa3e 07df 9a3e
00000390: 726e edbd f7e4 d1be f6c5 eebe 3dba d6be
000003a0: 1f5f 433c ad36 5ebe 0ffa bfbd 05d3 01bf
000003b0: 2207 273e b4f1 35be cb11 67be 0d26 b63c
000003c0: 042b b3bd cdb9 133e 017c fa3d 6dd5 b9be
000003d0: 40fe c03d 3bc5 9bbe 016f bebe a342 ab3e
000003e0: 47f9 a13d 17be 97be 8bba 453e f504 48be
000003f0: 139d d7be f676 3b3e 19dc 393e a11a b7be
-0.53386045 0.44372454 -0.368257 0.031098954 0.19794248 0.0053596706 -0.026436867 -0.5761424
-0.3790953 -0.16582255 -0.60398567 -0.4735184 0.0774165 -0.23043258 -0.030647833 0.34964356
-0.35936385 -0.45145696 -0.2384587 0.2515041 0.19937518 -0.37969473 -0.61236644 -0.39787218
-0.4980176 -0.14876823 -0.097932406 -0.20507972 -0.15999939 -0.10324707 -0.21794179 -0.46003425
-0.22560689 0.29098445 0.34740698 -0.38383672 -0.5087116 -0.2913123 -0.13126785 -0.095270194
-0.26654407 -0.5201667 -0.11289795 0.23836638 -0.14844501 -0.06732483 0.046932872 -0.13222413
-0.3036058 0.21037193 -0.34732434 -0.089380935 -0.16247138 -0.020770771 -0.035176344 0.21528989
-0.33546463 0.33909696 -0.19985399 -0.6794113 -0.12373503 -0.2995091 0.029828241 -0.18941447
0.41800216 -0.4303153 0.03597755 -0.30686966 -0.23236398 -0.19151908 -0.2649203 -0.17195277
-0.19381243 -0.31394204 0.004727227 0.23211531 -0.032752316 -0.115609154 -0.49409077 -0.24257275
-0.24287984 -0.28813574 -0.51298714 -0.2041209 -0.22159271 -0.46716785 -0.1883885 0.013715805
-0.6467775 -0.34321436 -0.21666157 -0.55782646 -0.2445619 -0.091942534 -0.43308386 -0.2670644
0.49768522 -0.29050297 -0.2562664 0.21884441 -0.25186324 -0.17369965 -0.27084157 -0.47583538
-0.13264224 -0.11040482 0.056828707 -0.43155995 -0.1731085 -0.1363341 0.13678533 -0.1223034
-0.3674178 0.2555558 0.04338737 -0.27960017 0.4686982 -0.4935096 -0.26605055 0.56658214
-0.039873485 -0.28835008 -0.032346454 -0.27687073 -0.5150259 -0.18522082 0.05693517 -0.50052035
-0.28508252 0.300054 0.04066891 0.12267989 0.25155523 0.2477837 0.23209313 -0.22236867
-0.14277162 0.13102432 -0.46341124 -0.274971 0.08993603 -0.25167352 0.22871341 -0.31921554
0.13725264 -0.17008477 -0.20594883 0.15804245 0.022623653 -0.24294052 -0.47989637 -0.10599181
-0.18407327 -0.06616303 -0.036271915 -0.16243155 0.16135034 0.37169042 -0.4930677 -0.39154702
-0.082582675 -0.14946748 0.3932974 -0.16164231 -0.11612078 -0.37779537 0.14306004 0.15177369
-0.3016427 0.018139761 -0.27662605 0.21495983 -0.12388537 0.32599163 0.1840056 -0.1399491
-0.14615591 0.073974505 0.18875128 -0.010768787 -0.30759117 0.3905626 -0.15207502 0.23012269
-0.38808036 0.02121838 -0.37045437 -0.07894058 -0.26573208 -0.12193823 0.03391183 -0.06657491
0.19963363 -0.3605373 -0.17564172 -0.31179255 -0.32234368 -0.40228024 0.16476895 0.29935208
-0.15810663 0.16956295 0.6134191 0.24515454 0.25344852 -0.15171745 -0.3534768 -0.10318549
-0.19156176 -0.14786415 -0.15017943 -0.34197733 -0.23869094 -0.10043341 -0.21034825 0.26377645
-0.51762986 -0.07808694 -0.2971157 -0.16385677 0.03309377 -0.016139133 -0.21850912 -0.119828016
0.23348752 -0.011280564 0.33306444 0.3024828 -0.115933314 -0.40995 -0.46635407 -0.41938964
0.011924534 -0.21700545 -0.09373867 -0.50712615 0.16311315 -0.17767984 -0.22565381 0.02223494
-0.08748439 0.14426346 0.12230683 -0.36295643 0.09423494 -0.30423912 -0.37194064 0.33449277
0.07908874 -0.29637215 0.19309442 -0.19533141 -0.42112026 0.18307099 0.18150367 -0.35762504

bias_hh_l0 f4 [512]
00000000: 960a 1bbf 3e25 073f 5443 93be 6363 da3c
00000010: c458 d03d 784d e3bd 5ecb 8dbd a7e8 12bf
00000020: fef4 6bbe 3e3d dabd fa26 22bf 693e cabe
00000030: 68c7 563e 9019 85be 5bbf 45be 10c2 c23e
00000040: 18b3 96be 6daa 0cbf 305e a1be 1396 853e
00000050: ae7c 7d3e 7501 b6be 8268 22bf 7f57 97be
00000060: 9775 26bf 0cbf 50be 284c dabd ba20 88be
00000070: cab0 b5bd 5995 37be cd07 85be cee9 babe
00000080: b029 4fbe f2be 393e 516b dc3e b9cc b6be
00000090: ac44 17bf 437a 89be 53b6 efbd 480f d63c
000000a0: 0c73 3dbe 4366 09bf 9f30 50be 41a6 5e3e
000000b0: dd3d 1fbe fc20 8abd 9f63 863d a96c 40be
000000c0: 88f6 a1be bb24 963e 9e30 e3be 464c 04ba
000000d0: 790c 59be 6aff cdbc 5e4a 6abc 13b5 573e
000000e0: 0d1a 9bbe b69b 843e 84ef 18be b4a9 0ebf
000000f0: 0c71 00be 048a 31be d3e4 b43d 19c5 2ebe
00000100: 47e8 d83e c85d f6be 2aef 86bd ca65 93be
00000110: 2e30 a9be bc57 20be 6c4b b9be bfdd 2fbe
00000120: 8efc 83be 5b71 bbbe c0eb bfbc db46 693e
00000130: d616 29bd e419 0bbe d714 c6be 8442 9cbe
00000140: 25ca b2be 8cd1 a1be a12b e8be c87d 69be
00000150: c949 2abe d611 1bbf 3069 83be 4c47 1b3e
00000160: 8174 2cbf 04c1 b3be d9ee 59be 05ae ffbe
00000170: 96f0 38be ed3e f2bc c313 e9be 1149 bdbe
00000180: 25c6 ee3e 6a1f 7cbe b8cb 96be 38d0 573e
00000190: 3c54 1fbe dab7 a8bd e531 aabe 5a1d fdbe
000001a0: c671 88bd 172f 1bbe 0dfa 093d 1a23 01bf
000001b0: f284 17be 2c0f 50be 1df3 373e 7ff0 61be
000001c0: 7c0e 9dbe d751 cd3d d2d7 223e e1eb 7bbe
000001d0: e166 cd3e a59b 1fbf dafc adbe 2651 133f
000001e0: 8b62 4d3d 671f 8abe 2f6b 54bd 9ae5 97be
000001f0: 69c0 e1be 93ca 2bbe 0a23 b53d 4448 0ebf
00000200: 1446 a6be 782b d53e 32b5 d3bd 32db 5c3e
00000210: 8ee0 2b3e 453e 523e 234e 0a3e 1885 f5bd
00000220: b396 1fbe 7c97 423e dfcd 0fbf 6a37 89be
00000230: c10e 8b3d 5ce8 82be d032 dc3d 87e1 8dbe
00000240: 1eab c33d 044a 73be 2e1f 86be 2138 843e
00000250: 99cd 13bd 06af 72be 49c4 e2be 741a d7bd
00000260: d897 66bd 2ef8 00be fed9 d6bd e3ab 9fbe
00000270: d578 e63d eb32 8b3e 7729 f7be 057d e2be
00000280: 5c5b f3bd a956 07be ceb4 a83e ae2b 30bd
00000290: 2932 4abd 7899 c7be b06a 7b3e 5679 393d
000002a0: 15a0 31be e982 663c 6c91 83be 0c9b 473e
000002b0: 1edf dbbd c02c b03e 6a55 543e 57b2 48be
000002c0: 092d 0ebe bc9a fa3d 6ee0 663e f9fe 82bd
000002d0: fd77 d1be 944e 713e e99a 29be 08a5 943e
000002e0: e72c d3be 86f0 803d 52a5 b9be 088b 6bbe
000002f0: bb42 8bbe a367 afbc 47ff fe3d 244a d0bc
00000300: 0ac4 1e3e faf6 ecbe e4a6 79be 6641 67be
00000310: dcf4 b1be b82b d5be f02a 8a3e 5b96 803e
00000320: 808f 59be 40da 333e 6c43 003f 962b 933e
00000330: 1e44 0a3e 9885 bebd 1926 88be 1975 12bd
00000340: aaad 45bd 9870 ddbd 6713 35be b6ea a8be
00000350: 8dd5 32be acdb a6bd 9bc2 60be a29a b93e
00000360: 122a d3be f848 8c3d 1133 11be 8105 0fbe
00000370: e7fb a3bc 8fb3 f4bc 2ff9 50be fea5 a6bc
00000380: abfa f33d 703f 873c 78ae 863e 3ab2 c13e
00000390: 1f0d 46be 0c3e cebe 1b28 e1be 3b0d c9be
000003a0: 90c6 1c3e e46a 46be 2407 97bd 5639 febe
000003b0: 17e6 113e cb9b 63be d2be 0dbe 2b53 eb3c
000003c0: 346e babc 0b0b 2c3e fa4d 713e 9f43 c4be
000003d0: 8c0b c63d fed8 64be af59 c4be 4363 e13e
000003e0: 3343 bc3d fd68 b3be 0cbd 0f3e 706b 77bd
000003f0: 374a f6be ffbe 1f3d cc14 003e cfea f3be
-0.6056303 0.527912 -0.28762305 0.02665872 0.10173181 -0.1109876 -0.06923555 -0.5738625
-0.23042676 -0.10656212 -0.63340724 -0.3950074 0.20974505 -0.25996065 -0.19311278 0.38038683
-0.29433513 -0.5494755 -0.31517172 0.2609106 0.24754593 -0.35547987 -0.63440716 -0.29558942
-0.6502318 -0.20385379 -0.10659057 -0.26587468 -0.088716105 -0.17928065 -0.25982514 -0.36506504
-0.20230746 0.18139246 0.43050626 -0.35703066 -0.5908916 -0.2685109 -0.117046975 0.026130334
-0.18500918 -0.53671664 -0.20331047 0.21743108 -0.15550943 -0.067445725 0.0656197 -0.1879145
-0.316334 0.29324898 -0.4437303 -0.0005046766 -0.21196164 -0.025146205 -0.014299957 0.21065168
-0.30293313 0.25900048 -0.14935118 -0.55727696 -0.12543124 -0.17337805 0.08832707 -0.17067374
0.42364714 -0.48118424 -0.06588586 -0.28788596 -0.3304457 -0.15658468 -0.36190355 -0.17174433
-0.2577862 -0.3660992 -0.023427844 0.22780935 -0.041281544 -0.13584095 -0.38687775 -0.30519497
-0.3491985 -0.31605184 -0.45345786 -0.22801888 -0.1662971 -0.6057409 -0.2566619 0.15163916
-0.6736527 -0.35108197 -0.2128252 -0.49937454 -0.18060526 -0.029571021 -0.4552289 -0.36969808
0.46635547 -0.24621359 -0.294523 0.21075523 -0.15559477 -0.08238192 -0.33241192 -0.49436456
-0.066623256 -0.15154682 0.033685733 -0.50444186 -0.14796808 -0.20318288 0.17963834 -0.22064398
-0.30675113 0.10025375 0.15902641 -0.246017 0.40117553 -0.6234687 -0.33981973 0.575457
0.050142806 -0.26977083 -0.05186003 -0.2966736 -0.4409211 -0.16776495 0.08844574 -0.5557902
-0.3247534 0.41634727 -0.10337295 0.21567991 0.1678488 0.20531566 0.1350637 -0.11988276
-0.15584831 0.19003099 -0.5617351 -0.2680009 0.067899235 -0.255679 0.10751879 -0.27711126
0.095541224 -0.23758703 -0.26195663 0.25824073 -0.036084745 -0.23699579 -0.4429038 -0.105030924
-0.056297153 -0.12594673 -0.104907975 -0.31185827 0.11253516 0.27187285 -0.48273823 -0.44236007
-0.1188266 -0.13216652 0.32950443 -0.043010406 -0.049364243 -0.38984275 0.24552417 0.04528173
-0.17346223 0.014069297 -0.25696886 0.1949274 -0.107359156 0.34409142 0.20735708 -0.19599281
-0.13884367 0.122365445 0.2254655 -0.063962884 -0.40911856 0.23565131 -0.16563 0.2903216
-0.41245195 0.06295876 -0.36258942 -0.23002255 -0.2719935 -0.021411723 0.12451034 -0.025425978
0.1550447 -0.46282178 -0.2438007 -0.22583541 -0.34757125 -0.41634917 0.26985884 0.25114712
-0.21246147 0.17563725 0.5010288 0.2874419 0.13502547 -0.09302825 -0.26591566 -0.035756204
-0.048261322 -0.10812491 -0.17683183 -0.3299157 -0.17464276 -0.08147368 -0.21949236 0.36250788
-0.41243035 0.06849855 -0.14179637 -0.13966943 -0.020017577 -0.029870776 -0.20407556 -0.020342823
0.119130455 0.016509742 0.26304984 0.3783129 -0.19340943 -0.40281713 -0.4397591 -0.39267907
0.1531012 -0.19376713 -0.07374409 -0.4965312 0.14247929 -0.22227399 -0.13842323 0.028726181
-0.022757627 0.16801088 0.23564902 -0.3833284 0.09670171 -0.22348401 -0.38349673 0.44021043
0.09192505 -0.35041037 0.1403696 -0.060405195 -0.48103496 0.039000507 0.12507933 -0.47640082

weight_ih_l1 f4 [512, 128]
00000000: 9a4f 43be d2d1 30bf 9306 d23d 9188 ebbe
00000010: d9cb 263e 3d0b b8be 72da 27be 17c8 123e
00000020: 0a7f 613e 876f 3f3c 2b9a 02bd f9de 8739
00000030: b316 e33e 5136 e33d b192 f7bd 2fcd 21bf
00000040: a3ca 29bc 4b2b 94bd ef25 133e 1776 3aba
00000050: f49b 80be cde2 14be 4f91 503d e839 dfbc
00000060: ff32 84bc beea fabe c849 6dbe 65c4 3cbe
00000070: cdb6 d03d cb33 a83d 08de 26be 1e8c 75bd
00000080: dd76 f2bc d3a8 2a3f 2557 9fbe aacb acbc
00000090: 9a8b 78bd 2f7e 18be 5378 a33d f74f 02bf
000000a0: 96d0 3ebd 291a e0bd b43b 753c a7eb 033f
000000b0: 3bad c23d 7992 bf3e f47f 02bf 85b9 d3bd
000000c0: 36cc 5ebe 636f ad3e 669f febd 44d9 adbd
000000d0: 943a bb3c eebb 943d a516 00be 7ee5 4a3f
000000e0: 24db f83d 9a28 28bf c55d 70bd 57aa 293e
000000f0: 1c84 133e 5bd4 1c3e 3df2 febe e4b8 a33c
00000100: 89bb 72bf a4ba 643d 5984 983d 7055 2cbe
00000110: 14cf 6c3d 038d 8bbb 1269 3dbe 045e 9fbc
00000120: 7a42 47be 23ac ba3c df2e 4cbe 0022 143d
00000130: 698a a83f 1eee a7be ec73 013d a48a 7fbe
00000140: a5c5 0b3d f29b 833d 78a8 08be 7c1f f53d
00000150: c367 69be 51b0 b4bc 7b11 bb3c d0e3 25bf
00000160: bf9b 23be b28c d33d 8a2c adbd c0a0 f0bd
00000170: 87db 2b3e 8e8e 37bf 16c7 0abe 4aa5 96bd
00000180: a859 7fbf 7c1c 21be 92b7 0d3c b075 e83e
00000190: 4a9d 563e 36b3 27be 68d1 3dbe be17 68bd
000001a0: 57ed 953e e8b4 973e fee5 903e 18ad a8bc
000001b0: ffc1 dd3e f520 ad3d 1a69 cd3e d592 43bd
000001c0: b781 9cbd 6a7e 98be d652 8cbd fc1d d8bd
000001d0: 68e1 753f 3cc0 42bc 2435 923e 179a 4ebf
000001e0: 6e73 18bf 076c 00bf 9272 31be b66e fc3d
000001f0: 8998 9d3c b236 cbbe 6e08 9cbe 53e2 54be
00000200: c758 d33d f352 61be bf37 193e f9e3 ffbe
00000210: 089c 11be f6b3 b8be 6b99 3dbe 15d7 3ebe
00000220: d509 3abd eedc a53e 6052 933c 7967 de3d
00000230: 8ebc 113f e4a2 04be 2419 703e 5e23 04bf
00000240: e2b3 51be 05e7 b53d 4435 9c3e ee89 a33c
00000250: 79f3 67be adfd a6bd 9c3f 823c a8b8 943e
00000260: e699 1abe afad 91be 3974 063d 2d0f 16be
00000270: 4752 343c c1f5 f1bd bcf4 90be a46e 743e
00000280: e306 19be 84e0 863e c3a0 153c 9bab 92bd
00000290: aee4 94be bcb7 27be 2a52 94bd ae2e d8be
000002a0: d19d 293d 1a0d d93d 2a87 8dbe 2118 1f3f
000002b0: d666 2ebe 9503 043f b11b a7be 1b9e 293d
000002c0: ba03 253e 472f 9c3e ad74 ea3e d449 5cbe
000002d0: 4ecc 89bd 4ab2 b3be 62ac 0d3e cfb4 ae3e
000002e0: f4a8 acbc 9c1b 65be d92a 8ebd 61e2 be3d
000002f0: 0604 f2bb 2659 c23c 57e1 a4be 7456 0e3e
00000300: ec79 bdbe 32e1 303e ad37 7dbd 8a37 35bd
00000310: 2f0c 053e ecc7 523e 31d8 a0be 2546 c1bd
00000320: e4ed a73d 050d fb3d 4d11 063f 18c3 753e
00000330: 4c25 b63e 7bef 42bf 6204 1b3e e567 f9bd
00000340: 1bb4 0fbe 2726 3a3e 6cf2 b33d eb32 72be
00000350: b4e9 72bd 937b 613d e64f 063d c6eb 22bf
00000360: 17f7 00be 4b12 2d3e 4f42 d43c 2462 49bd
00000370: e098 183e 2157 dd3a d288 b0be 90f8 37be
00000380: 5b8b 02bf 3f9a c9be b7dc fdba 0bb8 de3e
00000390: 2f75 8b3e c408 69be 1bcb ed3d 0d21 7c3d
000003a0: e024 b43e fe60 8e3c c878 063e e6ac d53b
000003b0: 7a12 a73d 3973 bc3e 8d3e 5c3e ea62 013e
000003c0: f8de 85be b1d8 0c3e 7535 133e 8f82 95bd
000003d0: de11 da3e d266 2abe 0f82 933d cdae 10be
000003e0: 1232 7fbe 3189 b9be a444 b1be 575a 28be
000003f0: 2e26 68bc a619 04bd 60ea 8cbc 59ad f43e
-0.19073334 -0.6907016 0.1025516 -0.4600263 0.16288699 -0.35946074 -0.16391924 0.1433414
0.22021118 0.011684305 -0.031885307 0.00025915334 0.44353256 0.110943444 -0.12088526 -0.6320371
-0.010363254 -0.0723482 0.1436994 -0.00071129337 -0.25118983 -0.14539643 0.050919827 -0.027249292
-0.016137598 -0.4900722 -0.23172677 -0.18434294 0.101911165 0.08213004 -0.16295636 -0.05994808
-0.029597694 0.66663855 -0.31121174 -0.021093208 -0.06068001 -0.14891885 0.079819344 -0.50903267
-0.04658564 -0.1094249 0.014967848 0.5153145 0.09505697 0.37416437 -0.5097649 -0.103381194
-0.21757588 0.33874044 -0.124327466 -0.08488706 0.02285508 0.07262407 -0.12508638 0.7925643
0.12151173 -0.65686953 -0.058683176 0.16568886 0.14405864 0.15315382 -0.49794188 0.019985624
-0.94817406 0.055842057 0.07447118 -0.16829467 0.057814673 -0.0042587533 -0.18497112 -0.01945401
-0.19458953 0.02278716 -0.19939755 0.036165237 1.316724 -0.32798856 0.031604692 -0.24955231
0.034124035 0.064262286 -0.13345516 0.11968896 -0.22793488 -0.02205673 0.022835484 -0.6480074
-0.15977381 0.1032957 -0.08455761 -0.11749411 0.16782962 -0.71701896 -0.13552508 -0.07355745
-0.9974618 -0.15733522 0.008649724 0.45402288 0.20958439 -0.16376957 -0.18536913 -0.056663267
0.29282638 0.29630208 0.2830047 -0.02059035 0.4331207 0.08453552 0.4011925 -0.04774745
-0.07641929 -0.29783946 -0.06851737 -0.10552594 0.9604707 -0.011886653 0.28556168 -0.8070387
-0.5955113 -0.50164837 -0.17328861 0.12325804 0.019237773 -0.39690167 -0.3047518 -0.20789461
0.10319667 -0.22004299 0.14962672 -0.49978617 -0.14219677 -0.360748 -0.18515556 -0.18636735
-0.045419533 0.32395118 0.017983615 0.108595796 0.56928337 -0.12952763 0.2344709 -0.51616466
-0.20478776 0.08881954 0.30509388 0.019963231 -0.22651471 -0.081538536 0.015899472 0.29047132
-0.1509777 -0.28452823 0.032825682 -0.14654227 0.011005945 -0.11814452 -0.28311718 0.23870331
-0.14944033 0.26343167 0.009132567 -0.071616374 -0.2908072 -0.16378683 -0.07242234 -0.42223114
0.04141027 0.10598202 -0.27642184 0.6214619 -0.17031416 0.51567966 -0.32638314 0.041410547
0.16114703 0.3050482 0.45792142 -0.21512538 -0.06728421 -0.3509696 0.1383529 0.3412232
-0.021076657 -0.22373813 -0.06941766 0.09320522 -0.0073857335 0.02372415 -0.3220317 0.13900167
-0.37007082 0.17273405 -0.061820675 -0.04424242 0.12992929 0.20584077 -0.3141494 -0.09437207
0.08199671 0.12258343 0.5237015 0.24000204 0.3557533 -0.7614667 0.1513839 -0.121780194
-0.14033549 0.18178616 0.08786473 -0.23652236 -0.059304908 0.05504949 0.03279104 -0.6364101
-0.12594257 0.1690151 0.025910525 -0.04916586 0.14902067 0.0016886928 -0.34479386 -0.17965913
-0.5099389 -0.39375493 -0.0019368146 0.4349979 0.2723784 -0.2275725 0.11611005 0.061554957
0.35184383 0.017380234 0.13132012 0.0065208552 0.08157821 0.36806658 0.21508236 0.12635389
-0.26146674 0.13754536 0.14375861 -0.07300293 0.42591757 -0.16640785 0.07202541 -0.14129181
-0.24921444 -0.3623748 -0.3462268 -0.16440712 -0.014169259 -0.032251023 -0.017201602 0.47788504

weight_hh_l1 f4 [512, 128]
00000000: 1c91 33bf 8a83 aabe 90cd dbbe 2807 df3e
00000010: 6844 f23e 9ea6 e33d 2441 1ebf a9f0 ae3e
00000020: edd7 0ebf f078 c5bd 7d17 503e 6d25 90bd
00000030: 8f45 42bd f8e5 1f3e 107b a3bd cd4f 44bf
00000040: 6646 27be d01c 0c3f ac35 abbe c3a2 3fbe
00000050: 982a e3be aa9b c0be 7977 d9be b8aa 1f3f
00000060: 3b99 21be 1e40 96be 661f 9b3d ec61 14be
00000070: 4302 0d3e c32e 05bf 9c97 cbbe 1b54 053f
00000080: 2c1d 05bf 2ba8 863e 68cf d5bc 4ab1 c03e
00000090: 8972 e1bd 59b0 e7bd 74f7 1dbf 2403 ae3e
000000a0: 9ba1 83be 7676 47be 0e57 a7bd 9554 663d
000000b0: 4009 763d 02d2 85be 77c4 3a3e efd4 94be
000000c0: bbea 6abe 29e8 a0be e146 b83d 6379 d43c
000000d0: 4173 643e 399b 14bf d115 e6be bf73 4fbd
000000e0: ee25 d7bd 2da9 3f3e f8d7 05bf 3854 a13e
000000f0: cbe5 fdbb 5fc0 b03d 6967 93be 0e81 1cbf
00000100: 3dba 393e 46a1 35bf 413d 06bf 4d6b 293e
00000110: d288 babe e4f3 1fbe 4a76 aabd d6ee 873e
00000120: f718 743e eb5b 3f3f eb0c b3be c3ad 353f
00000130: 97b1 9abe 76e9 0ebf 7109 01bf 203e 1f3d
00000140: 0d5b a5bd 479a 3bbe 8b34 07be cde5 8fbe
00000150: ac0b 06be 4896 0d3f d086 2cbd 7080 c5be
00000160: 6280 14be 66c3 cbbe ed08 fe3e f402 c43b
00000170: 0b3e 2cbe 8dc4 27be 0b4f a03d 625a 37be
00000180: cdad e93d a428 6abd a6ee d3be fa07 663e
00000190: c94f 31bf a7b3 d33e 723e d7be 49fd 6dbe
000001a0: 7eb3 e93c 4b29 c13e b132 afbd 0386 153e
000001b0: f976 48be 1d31 fbbd 2eda eabe 2d4c 88bb
000001c0: 3180 d7bd 2790 a4be 2a96 9f3d e2a3 0f3d
000001d0: ebef 083e 5cc7 04be bbe4 4a3f 169e 033f
000001e0: 7e53 57be 534a b7bd dd5a 523d 4f09 43bf
000001f0: 8bcf 2e3f 987e 9e3e b916 0e3e c7e3 51bd
00000200: 9cad 7fbe 54a8 173d faf8 afbe ba4c 323f
00000210: 98a2 113f b1b8 c83e 2b87 3cbf 0918 363e
00000220: 2555 0cbd c5f4 afbe 9ab4 243f 4edf 53be
00000230: 2003 dbbe 7a5c 4dbd 703e 9c3e 0a40 033f
00000240: d4cc 25be afe8 e03e 71d5 debe 230d 9bbe
00000250: 8b00 d0be 85c1 20be 43a4 b93d b759 a23e
00000260: 1713 873e 8b64 1f3e b0c0 55be 6f2d e6be
00000270: d4dd c5bc e70c 08bf 1128 95be 5758 053f
00000280: 6c6e debe 9824 d63e ee7f 80bd 35a4 343e
00000290: 7db4 b03d 74bc a73c 1d8b e7bd 3f08 113f
000002a0: c2e7 a3be cc56 8dbd 6399 993e 070d f6bd
000002b0: 0123 01bf d2b9 05bf 5771 933d 7b19 dbbe
000002c0: aed1 3cbb f928 d83d 8b3b 89be 9d9a b8bd
000002d0: 67c5 e23e 039b b3be efe8 41be 635d 2fbe
000002e0: bc44 86be e45e eb3e 92c5 723b 3011 b03e
000002f0: 9e80 3dbd ad72 4d3e 9488 143f f78d eebd
00000300: 0407 54bf 7130 34bf decd 3abe 4fc6 8abd
00000310: 6a4c fabe 7f74 c7be d5c1 29bc e20c c83e
00000320: b6e9 28be 210c 653e 7198 e1bd 52de 673f
00000330: 6ca4 28be c83a 02bf a557 1bbe 9de2 8dbe
00000340: 325c 88be 9d91 d4bc 4ccd 0ebf 98e9 373e
00000350: 514d 27be f1bb 133f 7ca4 bc3e d8a6 cbbe
00000360: c288 50bd 01a5 88be 21b0 543e fc1d 3ebe
00000370: 8bce bdbe 4a6c b0be 4384 84be 2c93 51be
00000380: 1f99 923e 7ded c43e 5ee6 06bf 9778 023e
00000390: 83eb 89be bd75 c13e 44ca dabe a0dc 77be
000003a0: 4909 283d e8b0 af3d 2bcb e3bc b748 a9be
000003b0: 27d0 9b3e f41e a6be 2157 22bf 1fdc 0f3e
000003c0: 2e45 943e c0ee 82be b4f0 2cbe 91db 9ebd
000003d0: c91e 4abe b4e5 03bc aea4 163f 8f8c 1a3e
000003e0: 8a33 cbbe 1efa 41be 5b77 97be d7b2 bcbe
000003f0: d4d9 103f efa7 e73d ddb0 83be 96dd f3bd
-0.70143294 -0.3330348 -0.4293027 0.43560147 0.47317815 0.11115764 -0.61818147 0.34167984
-0.55798227 -0.096422076 0.2032146 -0.070383884 -0.047429617 0.1561507 -0.07982457 -0.76684266
-0.16335449 0.54731464 -0.33439386 -0.18714432 -0.44368434 -0.37618762 -0.42473963 0.6236987
-0.15781109 -0.29345793 0.07574348 -0.14490479 0.13770394 -0.5202448 -0.39764106 0.5208146
-0.5199764 0.26300177 -0.026099876 0.3763526 -0.11008174 -0.113129325 -0.6170571 0.3398677
-0.25709233 -0.19478783 -0.08170901 0.056233007 0.060067415 -0.26136786 0.18239008 -0.29068705
-0.22941105 -0.31427124 0.08997894 0.025936788 0.22309591 -0.5804935 -0.4493852 -0.050647493
-0.105052814 0.18716879 -0.5228267 0.31509566 -0.0077483407 0.08630442 -0.28789833 -0.6113442
0.1813745 -0.7094921 -0.52437216 0.16544838 -0.3643251 -0.1562038 -0.08323343 0.26549405
0.23837648 0.7474963 -0.34970793 0.70968264 -0.30213615 -0.55824983 -0.5040503 0.038877606
-0.08074007 -0.18320571 -0.13203637 -0.28105012 -0.1309039 0.55307436 -0.042120755 -0.38574553
-0.14502099 -0.39797515 0.49616185 0.0059817974 -0.16820543 -0.16383572 0.07827576 -0.17905572
0.11410103 -0.057167664 -0.41393012 0.2246398 -0.6926237 0.41348 -0.4203983 -0.23241152
0.028527971 0.37726817 -0.085545905 0.14601903 -0.19576634 -0.12265227 -0.45869583 -0.0041594715
-0.105224974 -0.3214123 0.077923134 0.0350684 0.13372771 -0.12966675 0.79255265 0.51413095
-0.21027943 -0.08949723 0.051356185 -0.7618608 0.68285435 0.30955958 0.13875856 -0.051242616
-0.2496857 0.037025765 -0.34369642 0.69648325 0.56888723 0.39203408 -0.7364375 0.17782606
-0.034260888 -0.34366432 0.64338076 -0.20690653 -0.42775822 -0.05013702 0.30516386 0.5126959
-0.16191417 0.43927523 -0.43522218 -0.3028346 -0.40625414 -0.15698822 0.090645336 0.31709072
0.26381752 0.15565698 -0.20874286 -0.44956538 -0.024153627 -0.5314469 -0.2913213 0.5208792
-0.4344362 0.41824794 -0.06274401 0.17640765 0.086281754 0.020475604 -0.11305831 0.5665321
-0.32012755 -0.06901321 0.29999837 -0.120142035 -0.50444037 -0.52236664 0.07199352 -0.42792878
-0.0028811502 0.1055469 -0.2680324 -0.09013865 0.4429123 -0.35079202 -0.18936513 -0.17125468
-0.26224315 0.45970833 0.003704403 0.34388113 -0.046265237 0.20063277 0.580209 -0.116481714
-0.82823205 -0.70386416 -0.18242595 -0.067761056 -0.48886424 -0.38956067 -0.010361155 0.3907233
-0.16495404 0.22367908 -0.11015404 0.9057361 -0.16468972 -0.50870943 -0.15170152 -0.27711955
-0.2663284 -0.02594834 -0.5578201 0.17960203 -0.16338088 0.5770865 0.36844242 -0.3977573
-0.050911672 -0.26688388 0.20770313 -0.18566126 -0.37071642 -0.34457618 -0.25882158 -0.20466298
0.28632447 0.3846244 -0.5269526 0.12741314 -0.26937494 0.3778514 -0.4273244 -0.24205256
0.04102448 0.08578664 -0.027806839 -0.3306329 0.30432245 -0.3244549 -0.634142 0.14048813
0.2895903 -0.25572777 -0.16888696 -0.07756723 -0.19738306 -0.008050371 0.5884503 0.15092681
-0.3968776 -0.18943068 -0.29583248 -0.36855194 0.5658238 0.11311328 -0.25720873 -0.119074985
